…
./YoloKCF_SVR: /usr/lib/libOpenCL.so.1: version `OPENCL_1.0' not found (required by ./YoloKCF_SVR)

sudo ln -s /usr/lib/aarch64-linux-gnu/libMaliOpenCL.so /usr/lib/libOpenCL.so.1






@ 패키지 설치 

sudo apt-get install clinfo
sudo apt-get install ocl-icd-opencl-dev
sudo apt install gfortran

firefly@firefly:~/test/nfs/ondevice/rk3399/Old_보드/Release_OldSrc$ ./YoloKCF_SVR 
Start main()InitializeVariables_NaeulTech()
Number of available platforms : 1
platform info : OpenCL 1.2 v1.r14p0-01rel0-git(966ed26).f44c85cb3d2ceb87e8be88e7592755c3
DeviceID : 1
DeviceInfo : Mali-T860
layer     filters    size              input                output
   0 conv      8  3 x 3 / 1   160 x 160 x   1   ->   160 x 160 x   8 0.004 BF
   1 max          2 x 2 / 2   160 x 160 x   8   ->    80 x  80 x   8 0.000 BF
   2 conv     16  3 x 3 / 1    80 x  80 x   8   ->    80 x  80 x  16 0.015 BF
   3 max          2 x 2 / 2    80 x  80 x  16   ->    40 x  40 x  16 0.000 BF
   4 conv     32  3 x 3 / 1    40 x  40 x  16   ->    40 x  40 x  32 0.015 BF
   5 max          2 x 2 / 2    40 x  40 x  32   ->    20 x  20 x  32 0.000 BF
   6 conv     64  3 x 3 / 1    20 x  20 x  32   ->    20 x  20 x  64 0.015 BF
   7 max          2 x 2 / 2    20 x  20 x  64   ->    10 x  10 x  64 0.000 BF
   8 conv    128  3 x 3 / 1    10 x  10 x  64   ->    10 x  10 x 128 0.015 BF
   9 max          2 x 2 / 2    10 x  10 x 128   ->     5 x   5 x 128 0.000 BF
  10 conv    256  3 x 3 / 1     5 x   5 x 128   ->     5 x   5 x 256 0.015 BF
  11 max          2 x 2 / 1     5 x   5 x 256   ->     5 x   5 x 256 0.000 BF
  12 conv    512  3 x 3 / 1     5 x   5 x 256   ->     5 x   5 x 512 0.059 BF
  13 conv    128  1 x 1 / 1     5 x   5 x 512   ->     5 x   5 x 128 0.003 BF
  14 conv    256  3 x 3 / 1     5 x   5 x 128   ->     5 x   5 x 256 0.015 BF
  15 conv     18  1 x 1 / 1     5 x   5 x 256   ->     5 x   5 x  18 0.000 BF
  16 yolo
  17 route  13
  18 conv    128  1 x 1 / 1     5 x   5 x 128   ->     5 x   5 x 128 0.001 BF
  19 upsample            2x     5 x   5 x 128   ->    10 x  10 x 128
  20 route  19 8
  21 conv    128  3 x 3 / 1    10 x  10 x 256   ->    10 x  10 x 128 0.059 BF
  22 conv     18  1 x 1 / 1    10 x  10 x 128   ->    10 x  10 x  18 0.000 BF
  23 yolo
Total BFLOPS 0.215 
Loading weights from model/Net_Laser_160_gray/yolov3-tiny_2class_final.weights...
 seen 64 
Done!
TargetTracking_NaeulTech(0)






   1  ifconfig
    2  ifconfig -a
    3  reboot
    4  sudo reboot
    5  ls
    6  mkdir test
    7  mount -t nfs -o nolock 192.168.3.70:/nfs test/
    8  sudo mount -t nfs -o nolock 192.168.3.70:/nfs test/
…
